Model/LFN.pth (torch, 551263 bytes, 86 tensors)

LNB1.0.weight f4 [32, 6, 3, 3]
0	0x3e875118	0.26429057
1	0x3eca8812	0.39556938
2	0x3f673b53	0.90324897
3	0xbecc9dcd	-0.39964142
4	0x3e8b6c76	0.27231187
5	0x3e23321d	0.15937085
6	0xbed869e1	-0.4226828
7	0xbeb105f6	-0.3457486
8	0x3ea71bdc	0.32638443
9	0xbecf7be0	-0.40524197
10	0xbe592aa7	-0.21207677
11	0x3e589e45	0.21154125
12	0xbeb29bf4	-0.34884608
13	0xbe568b5d	-0.209516
14	0xbe68a374	-0.22718602
15	0xbdabcbac	-0.08388457
16	0xbf056e32	-0.5212127
17	0xbdbc9680	-0.09208393
18	0xbdfd5c67	-0.1237114
19	0xbe8232c6	-0.25429362
20	0x3df18cc3	0.11794426
21	0x3e4e3e97	0.20141064
22	0xbe4e7918	-0.20163381
23	0x3e431119	0.19049491
24	0x3e0edc9b	0.13951342
25	0xbe9859b6	-0.29755944
26	0x3df81c81	0.12114812
27	0x3e169c90	0.14708161
28	0x3f0d0bff	0.5509643
29	0x3f016749	0.50548226
30	0xbe12ec14	-0.14347869
31	0x3edbdcac	0.42941797
32	0x3f044a6c	0.5167606
33	0xbecf4a14	-0.40486205
34	0xbeea1e2c	-0.45726144
35	0xbe3857ab	-0.18002193
36	0xbe79cabd	-0.24393745
37	0x3eb49841	0.3527241
38	0x3ef750d2	0.48303849
39	0xbf189f18	-0.5961776
40	0x3eab3506	0.3343889
41	0x3e6d16a3	0.23153166
42	0xbdeb3b53	-0.114859246
43	0x3d8f6150	0.07000983
44	0xbdc3fb7c	-0.09569451
45	0xbe9beb4e	-0.3045296
46	0xbefea490	-0.49734926
47	0xbe8af429	-0.27139404
48	0xbee6cb07	-0.45076773
49	0xbf36b3ba	-0.7136799
50	0xbe26b91d	-0.16281553
51	0x3ea1df7c	0.31615818
52	0xbf14f2d7	-0.58183044
53	0xbea5b1b6	-0.32362145
54	0x3eec1187	0.46107122
55	0xbe2e3dda	-0.17015782
56	0xbeaf2864	-0.34210503
57	0x3e938941	0.28815654
58	0xbe87abdd	-0.2649831
59	0xbebb3a2d	-0.36567822
60	0x3f3f66ab	0.74766034
61	0xbd44bd5a	-0.048032142
62	0x3ea61c5c	0.3244351
63	0x3eda8736	0.42681283
64	0xbeed6599	-0.46366575
65	0xbf04bf82	-0.5185472
66	0xbe82be8f	-0.2553601
67	0xbe991030	-0.29895163
68	0xbe9bab69	-0.30404213
69	0x3f5dcaa0	0.86637306
70	0xbf9a12c9	-1.2036983
71	0x3deb24ae	0.114816055
72	0x3edfa409	0.43679836
73	0xbf489aef	-0.7836141
74	0xbf54c728	-0.8311639
75	0xbb96d51f	-0.0046030427
76	0xbe06fe2b	-0.13182895
77	0xbe02e56d	-0.12782831
78	0x3f6f2d7e	0.9342879
79	0xbf84a485	-1.0362707
80	0x3dd22c5c	0.10262367
81	0xbd7a08b9	-0.061043475
82	0xbf7e6cba	-0.99384654
83	0x3e97be86	0.29637545
84	0xbed79927	-0.42109033
85	0x40015064	2.0205317
86	0x3f5c39cd	0.86025697
87	0xbe7b71c0	-0.24555111
88	0xbfcb52ee	-1.5884683
89	0xbe378e97	-0.17925487
90	0x3b034f50	0.0020036288
91	0xbf4e4351	-0.80571467
92	0xbf0fcfa5	-0.56176215
93	0x3f382d99	0.71944577
94	0x3ff46e3a	1.9096138
95	0x3f93f12b	1.1557974
96	0x3f2ff97a	0.68740046
97	0xbfd352c4	-1.6509633
98	0x3dc29034	0.09500161
99	0xbe1d52a5	-0.15363558
100	0x3d0a451f	0.033757325
101	0x3ee6f5e9	0.4510949
102	0xbee4e21f	-0.44703767
103	0x3fb10c67	1.383191
104	0x3da0c899	0.07850761
105	0x3e1d51da	0.15363255
106	0xbef5f2d6	-0.48036832
107	0x3e9bdae8	0.3044045
108	0x3f939213	1.1528953
109	0x3f8e97fc	1.1140132
110	0x3fb79094	1.4340997
111	0xbf19fbfd	-0.6015013
112	0xbf80d01f	-1.0063514
113	0xbf134523	-0.5752737
114	0xbed7f1e3	-0.42176732
115	0xbf6f5803	-0.9349367
116	0xbf0bd4a0	-0.54621315
117	0x3fad1b48	1.352395
118	0x3faada20	1.3347816
119	0x3fc380f9	1.5273734
120	0xbea1b87f	-0.31586072
121	0xbf891d68	-1.0712099
122	0xbf26bc14	-0.65130734
123	0xbf0a7abd	-0.54093534
124	0xbf89fc63	-1.0780147
125	0xbf245e9e	-0.64206874
126	0x3f910f77	1.1332844
127	0x3f8d2f45	1.103005
128	0x3fb40ed5	1.4067026
129	0xbee3d054	-0.4449488
130	0xbf70092f	-0.93764013
131	0xbf2b7064	-0.6696837
132	0xbe9a0eaa	-0.30089313
133	0xbf3af366	-0.73027647
134	0xbea65a07	-0.3249056
135	0x3f89213e	1.071327
136	0x3f5ce75c	0.86290526
137	0x3f938be5	1.1527067
138	0xbe8b642e	-0.2722487
139	0xbf5b4848	-0.8565717
140	0xbf05402f	-0.5205106
141	0xbeebabb2	-0.4602943
142	0xbf31f236	-0.6951021
143	0xbed8080c	-0.4219364
144	0x3f908829	1.1291553
145	0x3f968c2e	1.176153
146	0x3f8edd70	1.1161327
147	0xbecc646f	-0.39920375
148	0xbf6613e0	-0.89874077
149	0xbf0bdd53	-0.5463459
150	0xbf0b88c1	-0.54505545
151	0xbf5ddf9c	-0.86669326
152	0xbee59e3e	-0.44847292
153	0x3f367a1e	0.71280086
154	0x3f37b4a7	0.7176003
155	0x3f596aaf	0.8492841
156	0xbeacad0b	-0.3372577
157	0xbf858e78	-1.0434103
158	0xbea299a6	-0.3175785
159	0xbee962e0	-0.45583248
160	0xbf2aae69	-0.6667238
161	0xbead952f	-0.3390288
162	0xbf06d5b8	-0.5266986
163	0xbf1d901b	-0.6154801
164	0xbed85626	-0.42253226
165	0xbf098765	-0.5372222
166	0xbf51608f	-0.8178796
167	0xbeb25658	-0.348315
168	0xbe09609b	-0.13415758
169	0xbe8dcfee	-0.276977
170	0xbdd89992	-0.10576166
171	0x3d530031	0.051513854
172	0xbd32ae0f	-0.043623026
173	0x3df4e320	0.11957383
174	0x3dfd9c5e	0.1238334
175	0xbea4bfc8	-0.32177567
176	0x3d4478d8	0.047966808
177	0x3ea1b7f6	0.31585664
178	0x3e83f442	0.2577229
179	0x3e87615f	0.26441476
180	0x3e3404c2	0.1757994
181	0x3e905efd	0.2819747
182	0x3e7a476f	0.24441312
183	0x3e3a226f	0.18177198
184	0x3dfb854f	0.12281286
185	0x3ef545a8	0.47904706
186	0x3f30313b	0.6882512
187	0x3f0e7bfa	0.55657923
188	0x3f380fc1	0.7189904
189	0xbeda1de5	-0.42600933
190	0xbf347757	-0.704946
191	0xbed52e33	-0.4163681
192	0xbf144139	-0.5791202
193	0xbf45ca4e	-0.7726182
194	0xbee6347d	-0.4496192
195	0xbe9aad1e	-0.30210203
196	0xbe505886	-0.20346269
197	0xbe9877ce	-0.29778904
198	0xbe39edea	-0.18157163
199	0xbeefbf87	-0.4682581
200	0x3d7615ab	0.060079258
201	0xbdd1a453	-0.102364205
202	0xbed7ee57	-0.42174026
203	0x3d3f5c63	0.046718966
204	0x3e0108df	0.1260104
205	0xbdebbd6d	-0.115107395
206	0x3e5e3dc8	0.21703255
207	0x3ec525e7	0.3850548
208	0xbdf34f1a	-0.11880322
209	0x3e429bc5	0.19004734
210	0x3dc22aa6	0.09480791
211	0x3de5e00b	0.112243734
212	0x3e885d70	0.26633787
213	0x3f045e98	0.5170684
214	0x3f05ebdc	0.5231302
215	0x3eee73ec	0.46572816
216	0xbea19881	-0.31561664
217	0xbf5949ff	-0.84878534
218	0x3ee008c2	0.43756682
219	0xbe8cedc7	-0.2752516
220	0xbe84b6f9	-0.25920847
221	0xbf115c62	-0.5678159
222	0x3f170e42	0.5900613
223	0x3eb5700f	0.35437056
224	0x3e71264e	0.23549768
225	0xbf1b5f28	-0.6069207
226	0xbfab9b5f	-1.340679
227	0x3d7f2cdb	0.062298637
228	0xbf07770b	-0.5291602
229	0xbc8912d9	-0.01673262
230	0xbdcdcfcc	-0.100494
231	0xbe649288	-0.22321522
232	0xbf19b56c	-0.6004245
233	0xbe11cab3	-0.1423748
234	0xbec243ed	-0.37942448
235	0xbea50b8b	-0.3223537
236	0x3ddd1679	0.10795302
237	0xbf30ef50	-0.6911516
238	0xbd766078	-0.060150594
239	0xbd604d7c	-0.054761395
240	0xbec54496	-0.3852889
241	0x3e3e7180	0.18597984
242	0xbe571142	-0.21002677
243	0x3ea556a2	0.32292658
244	0x3f012e2d	0.50461084
245	0x3dffc858	0.124893844
246	0x3f9e9ef9	1.2392265
247	0xbf61e01b	-0.8823258
248	0xbe21d149	-0.15802492
249	0x3db989ca	0.09059484
250	0xbf1e8430	-0.6192045
251	0xbecca682	-0.39970785
252	0x3f685740	0.9075813
253	0x3f49da34	0.78848577
254	0x3f1d9e0f	0.61569303
255	0x3fbd2abb	1.4778665

LNB1.1.bn.weight f4 [32]
0	0x3f4958b2	0.78650963
1	0x3f7cc45f	0.9873714
2	0x3f2803b9	0.6563068
3	0x3e370693	0.17873602
4	0x3f6d9de2	0.92819035
5	0x3f686951	0.907857
6	0x3f5bdc89	0.85883385
7	0x3f85be37	1.0448674
8	0x3fd696d6	1.6764781
9	0x3ef477bb	0.47747597
10	0x3f8fb30e	1.1226518
11	0x3f9a505e	1.2055776
12	0xbe0e99af	-0.13925813
13	0x3f60eb59	0.8785911
14	0x3ea7833c	0.3271731
15	0x3f8cd69f	1.1002997
16	0x3f0e2917	0.5553145
17	0x3fed74ae	1.8551233
18	0x3f5ec4e8	0.87019205
19	0x3fbc5cc2	1.4715807
20	0x3f96c742	1.1779559
21	0x3f515282	0.8176652
22	0x3f30f7bd	0.6912802
23	0x3fbcbbb5	1.4744784
24	0x3f6f411b	0.9345872
25	0x3f700e61	0.9377194
26	0x3faef7bd	1.3669354
27	0x3f8e7ce0	1.1131859
28	0x3f09f8a1	0.53895
29	0x3f631dcc	0.8871734
30	0x3fd266c4	1.6437612
31	0x3fae79e3	1.3630947

LNB1.1.bn.bias f4 [32]
0	0x407591ed	3.8370316
1	0xbea4050e	-0.32035106
2	0xbdc6e240	-0.097111225
3	0x3f13244e	0.5747727
4	0x3df3ae97	0.11898535
5	0xbf6426e5	-0.8912185
6	0x3daee5a3	0.085398935
7	0x3f7838f9	0.96961933
8	0xbe7d0c79	-0.24711789
9	0x3d5153d8	0.05110535
10	0x3d765ccb	0.060147088
11	0xbfab6e7c	-1.3393092
12	0x3fb66f30	1.4252682
13	0x3ea57c28	0.32321286
14	0x3f891653	1.0709938
15	0x3cfa631f	0.030564843
16	0x3f778cc0	0.9669914
17	0xbf5aa300	-0.8540497
18	0xbe0ee312	-0.13953808
19	0xbfddf11c	-1.7339206
20	0xbf1539b8	-0.58291197
21	0x3fc147d8	1.510005
22	0x40a7b248	5.240513
23	0xbf2b7827	-0.6698021
24	0x3fa18e75	1.26216
25	0x3fcb64c0	1.5890121
26	0xbff2bc79	-1.8963767
27	0x3dcdac3d	0.100426175
28	0x40537565	3.3040402
29	0x3e993c5d	0.29928866
30	0xc072463b	-3.7855365
31	0xbdd684c0	-0.10474539

LNB1.1.bn.running_mean f4 [32]
0	0xbe8a0a24	-0.26960862
1	0x3d19ec60	0.03757894
2	0xbea24fbe	-0.31701463
3	0xbf88b547	-1.0680321
4	0xbda63734	-0.08115998
5	0xc06d6ba2	-3.7096944
6	0x3ca802e4	0.02050919
7	0x3da6ca06	0.08144002
8	0x3d7fe31f	0.06247246
9	0xc08f2a9c	-4.4739513
10	0x3c7d9671	0.015477763
11	0xbbe1eee0	-0.006894931
12	0xbfa8e2cf	-1.3194216
13	0xbc43780a	-0.011930475
14	0xc0032486	-2.0491042
15	0x3d1ca3bc	0.038242087
16	0xbeac7d4f	-0.33689353
17	0x3d07a72d	0.033118416
18	0xbdccea9e	-0.10005687
19	0xbcf4768a	-0.02984168
20	0x3c9fd873	0.01951239
21	0xc003bd8a	-2.0584435
22	0xbe84531e	-0.25844663
23	0xbc0f1ee0	-0.0087353885
24	0xba9d8b8b	-0.0012019736
25	0x3b9066d2	0.0044067884
26	0xbb6c34ae	-0.0036042142
27	0x3c92875c	0.01788681
28	0xbdab1aa5	-0.083546914
29	0xc0319668	-2.774805
30	0xbcacfbda	-0.021116186
31	0x3d7e5b9b	0.06209908

LNB1.1.bn.running_var f4 [32]
0	0x3e95c67d	0.29252997
1	0x3e41dcdd	0.18931909
2	0x3fdee329	1.7413074
3	0x3f41d943	0.7572214
4	0x3e0e922e	0.1392295
5	0x40c68b23	6.2044845
6	0x3d0d717d	0.03453206
7	0x3e9c3f5e	0.30517095
8	0x3dec0fb2	0.11526431
9	0x412fc37e	10.985228
10	0x3db6220b	0.08893212
11	0x3dd40993	0.10353389
12	0x3f6416df	0.890974
13	0x3e21403d	0.15747161
14	0x3fdb0c16	1.7113063
15	0x3ddbaf63	0.10726812
16	0x3f5ea903	0.8697664
17	0x3dd246f9	0.10267443
18	0x3e77a9fe	0.2418594
19	0x3db78740	0.08961344
20	0x3e820d9a	0.25401002
21	0x3ff87565	1.9410826
22	0x3dd9104b	0.10598811
23	0x3e08c53c	0.13356489
24	0x3e775bed	0.2415616
25	0x3edd6d23	0.43247327
26	0x3d723335	0.059130866
27	0x3d92bfc4	0.07165483
28	0x3e33db30	0.17564082
29	0x403f6fa4	2.991189
30	0x3dda7c09	0.10668189
31	0x3e167f83	0.1469708

LNB1.3.weight f4 [32, 32, 3, 3]
0	0xbf1ab06f	-0.60425466
1	0xbf1024b8	-0.5630603
2	0xbd051d33	-0.03249855
3	0xbf601f1f	-0.8754749
4	0xbf8e7553	-1.1129555
5	0xbeb6b1f0	-0.3568263
6	0xbe810829	-0.25201538
7	0xbe90f8b2	-0.2831474
8	0x3e913b95	0.2836577
9	0xbec09bf8	-0.37618995
10	0x3f28f4ac	0.6599834
11	0xbe88ee63	-0.26744375
12	0x3f5eb42f	0.8699369
13	0x3f6fb82b	0.93640393
14	0x3f49f4c2	0.78889096
15	0xbf16d2a3	-0.58915156
16	0x3f230c6a	0.6369082
17	0x3e1efd71	0.15526368
18	0x3b880475	0.004150922
19	0x3e19efd4	0.15032893
20	0xbe86f68e	-0.2635998
21	0xbeed5a4e	-0.4635796
22	0xbea7d623	-0.3278056
23	0xbeee3b1c	-0.46529472
24	0x3eec6cca	0.4617675
25	0xbd938381	-0.07202817
26	0x3db50777	0.088393144
27	0x3eed5a7b	0.46358094
28	0x3ee269a6	0.44221228
29	0x3ef396fd	0.47576132
30	0x3eddb779	0.4330404
31	0x3ed2f201	0.4120026
32	0x3ee72003	0.4514161
33	0x3eea2b25	0.45736042
34	0x3f0564bc	0.52106833
35	0x3f0f5ec0	0.5600395
36	0xbe805985	-0.25068298
37	0x3ec1eec3	0.37877473
38	0xbe904dd8	-0.2818439
39	0xbd9b83f2	-0.07593526
40	0xbe286545	-0.16444881
41	0x3e9cb5f7	0.30607578
42	0xbbec7916	-0.007216583
43	0x3dc1c975	0.09462253
44	0x3e33470c	0.17507571
45	0x3f2fdc26	0.68695295
46	0x3f046bc8	0.5172696
47	0x3e8f14b8	0.27945495
48	0x3f27ebd5	0.65594226
49	0x3ed90644	0.42387593
50	0x3e6637ac	0.22482175
51	0x3f011d26	0.504351
52	0x3ef67137	0.4813325
53	0x3e577fd2	0.21044853
54	0xbf3520c2	-0.7075311
55	0xbf933346	-1.1500022
56	0xbf407134	-0.75172734
57	0xbeafb787	-0.34319708
58	0x3ec44522	0.38333994
59	0xbfaa9320	-1.3326149
60	0xbf2d857d	-0.6778181
61	0xbe2b2221	-0.16712238
62	0xbf4a4af2	-0.7902061
63	0xbe7d097b	-0.24710648
64	0x3f48bfc3	0.78417605
65	0x3ecc6b66	0.39925689
66	0x3f907aed	1.1287514
67	0x3c5b24be	0.013375459
68	0xba8afc23	-0.0010603707
69	0xbee55353	-0.44790134
70	0x3eaaccd0	0.33359385
71	0xbeb70266	-0.35744017
72	0xbf48f207	-0.78494304
73	0xbf146912	-0.57972825
74	0xbee785b8	-0.45219207
75	0x3df59d35	0.119928755
76	0x3eb6fdbc	0.3574046
77	0x3e9ffd8a	0.31248122
78	0xbf0ffb5a	-0.5624291
79	0xbfae1287	-1.3599404
80	0xbe2e6c94	-0.17033607
81	0x3f903826	1.1267135
82	0x3f6e1d68	0.9301362
83	0x3f0cc304	0.5498507
84	0x3f3b2062	0.7309629
85	0x3f042bb5	0.5162919
86	0x3e3bcd01	0.18339922
87	0x3f4fadb8	0.8112445
88	0x3f3fd08e	0.74927604
89	0x3ec6def4	0.38841975
90	0x3f04b662	0.51840794
91	0x3ed7031b	0.41994557
92	0x3f160867	0.5860657
93	0x400440d4	2.0664568
94	0x3fd1c7c3	1.6389087
95	0x3ed65543	0.41861925
96	0x3ec9a8c1	0.39386562
97	0x3f5a1ffc	0.85205054
98	0x3f58e700	0.8472748
99	0x3e273e91	0.16332461
100	0x3f3adace	0.7299012
101	0x3dad18c3	0.084519885
102	0x3f153f35	0.5829957
103	0x3e294f56	0.1653417
104	0xbdfb2f0d	-0.122648336
105	0xbd975ccf	-0.07390749
106	0xbe6f3dfd	-0.2336349
107	0xbd68caa6	-0.056833886
108	0x3fa5dae7	1.2957429
109	0x3f82f356	1.023051
110	0x3f6cc653	0.9249012
111	0x3f45aa86	0.77213323
112	0x3f0932d9	0.5359321
113	0x3ec5f2e8	0.38661885
114	0x3f81934f	1.012308
115	0x3f80209e	1.0009954
116	0x3f593e0d	0.84860307
117	0x3d2be9ce	0.04197102
118	0x3f2c0951	0.67201716
119	0xbe9e9853	-0.3097559
120	0x3ee69df9	0.450424
121	0x3fc12ce4	1.5091825
122	0xbea34d84	-0.31895077
123	0x3eb9e91c	0.3631066
124	0x3f2bfc1d	0.6718157
125	0xbdb1e081	-0.08685399
126	0x3f236146	0.638203
127	0x3f243685	0.6414569
128	0x3f31c2b9	0.6943775
129	0x3efb564c	0.49089277
130	0x3f2d3178	0.6765361
131	0x3f14216c	0.578635
132	0x3f0fd59f	0.56185335
133	0x3f6ffa35	0.9374116
134	0x3f4ad140	0.7922554
135	0xbf03133a	-0.5120121
136	0xbf658b44	-0.8966563
137	0x3e487e60	0.19579458
138	0xbe8e0ded	-0.27745
139	0x3e7c501f	0.24639939
140	0xbdc7a844	-0.09748891
141	0x3e866c1a	0.2625435
142	0x3ea4f96d	0.32221547
143	0x3e9a3e23	0.30125532
144	0xbdd75880	-0.10514927
145	0xbc17073e	-0.009218035
146	0x3d815e61	0.063168295
147	0xbf1455f9	-0.57943684
148	0xbf2aad2c	-0.6667049
149	0xbf041eea	-0.5160967
150	0xbe928c3a	-0.2862261
151	0xbdb5701f	-0.08859276
152	0x3d14659f	0.036229726
153	0xbe8fbd50	-0.2807412
154	0x3f23671a	0.63829195
155	0xbf08cfdf	-0.53442186
156	0x3e02b044	0.12762552
157	0x3f943660	1.1579094
158	0xbe484c1c	-0.19560283
159	0xbecba7f0	-0.39776564
160	0x3ebd5543	0.36979112
161	0xbe84eebc	-0.2596339
162	0x3e472ab9	0.19449891
163	0x3f097c8d	0.53705674
164	0xbf16cc10	-0.58905125
165	0x3cd255e1	0.025675716
166	0xbed5bf3c	-0.41747463
167	0x3e4f574a	0.20248142
168	0x3e6d4d3a	0.23173991
169	0x3eb051bf	0.34437367
170	0x3db6390e	0.08897601
171	0xbd702bce	-0.058635525
172	0xbe86dd56	-0.2634074
173	0xbb8e8aab	-0.0043500266
174	0xbeec7d67	-0.46189424
175	0x3db90e60	0.09035945
176	0xbeaef1a9	-0.34168747
177	0xbec70d0e	-0.38877147
178	0xbecdf033	-0.4022232
179	0x3ced176c	0.028941832
180	0x3cd4828e	0.02594116
181	0xbe86e7a9	-0.26348618
182	0xbc528717	-0.012849591
183	0x3f60cb3e	0.8781012
184	0x3e9fdb9e	0.31222242
185	0xbf1ef4e7	-0.6209244
186	0x3f0b7f65	0.54491264
187	0xbdb23e73	-0.087033175
188	0x3d746ffb	0.059677105
189	0xbe54c7cf	-0.20779346
190	0xbe845daf	-0.25852725
191	0x3e1bfc62	0.15232995
192	0xbf56e0a9	-0.83936554
193	0xbf7d7f6a	-0.99022543
194	0xbef18ad2	-0.47176224
195	0x3c40d4d2	0.01176949
196	0xbe097ed0	-0.13427281
197	0x3e860394	0.26174605
198	0xbe1cfe77	-0.15331446
199	0xbed8fb11	-0.42379048
200	0x3dfcae5d	0.12337945
201	0xbf538b0d	-0.8263405
202	0xbfd0a33b	-1.6299814
203	0xbec4536b	-0.38344893
204	0xbe730466	-0.23732147
205	0xbf3f1cdd	-0.74653417
206	0xbdd93460	-0.10605693
207	0xbdf958a1	-0.12175108
208	0x3e4ee602	0.20204929
209	0xbe916e67	-0.28404543
210	0xbf1a2dbe	-0.6022605
211	0x3f860e00	1.0473022
212	0xbedfcfc7	-0.4371321
213	0xbe81b61c	-0.2533425
214	0xbe05f26c	-0.13080758
215	0xbeace031	-0.33764794
216	0xbebaaec6	-0.36461467
217	0xbe612b6e	-0.21989223
218	0x3ec0b3b3	0.376371
219	0xbd796168	-0.06088391
220	0xbe0662e8	-0.13123667
221	0xbe068325	-0.13135965
222	0x3f1b79be	0.6073264
223	0x3ec0ee5c	0.37681854
224	0x3e04656f	0.12929319
225	0x3ea765d2	0.3269487
226	0x3eb484e3	0.35257635
227	0xbdb6393e	-0.08897637
228	0x3e8317ad	0.25604
229	0x3db9d76a	0.0907429
230	0xbe876298	-0.2644241
231	0xbf2254a7	-0.6341042
232	0x3d833066	0.06405716
233	0x3e924a09	0.2857211
234	0x3cb186e1	0.02167076
235	0x3eaaace7	0.3333504
236	0x3d85b7d1	0.06529201
237	0xbf41cccc	-0.7570312
238	0xbf747e67	-0.95505375
239	0xbf11e5fe	-0.56991565
240	0xbdfc6cf8	-0.12325472
241	0x3eb311ed	0.34974614
242	0xbe1177b6	-0.14205822
243	0x3e89f63f	0.26945683
244	0x3fd3e49c	1.6554141
245	0x3f3266be	0.6968802
246	0x3f6db7f8	0.9285884
247	0x3ffa5aa9	1.9558917
248	0x3f843bb1	1.0330716
249	0x3e3ac3e6	0.18238792
250	0x3f14cbef	0.5812368
251	0x3ef9a62a	0.48759586
252	0x3dff7219	0.12472934
253	0x3e7a7968	0.24460375
254	0x3e626ac8	0.22111046
255	0x3e0800be	0.13281533

LNB1.4.bn.weight f4 [32]
0	0x3f8b9ece	1.0907838
1	0x3fbc9bea	1.4735081
2	0x3fc9f1f5	1.5776964
3	0x3fdb6a87	1.7141885
4	0x3f8626c4	1.048058
5	0x3fb5d1a4	1.4204602
6	0x3ffea873	1.9895157
7	0x3fed33fb	1.8531488
8	0x3f98b0b6	1.1928928
9	0x3fce71f3	1.6128525
10	0x3fe9e12c	1.8271842
11	0x3fc800c4	1.5625234
12	0x3fa2d9d0	1.2722721
13	0x3fab7429	1.3394824
14	0x3fe26848	1.7688074
15	0x3fb03253	1.3765358
16	0x3fa97b28	1.3240709
17	0x3fda66ce	1.7062624
18	0x3fb47ef8	1.4101248
19	0x3f8ba87f	1.0910796
20	0x3fd822f8	1.6885672
21	0x3fa1a992	1.2629874
22	0x40017860	2.022972
23	0x3fc8e4cc	1.5694823
24	0x3fac4b5a	1.3460495
25	0x3fc7e8b6	1.5617893
26	0x3fafc3d4	1.3731637
27	0x3fa6c3fe	1.3028562
28	0x3fdc909d	1.7231632
29	0x3fee67b2	1.8625395
30	0x3f9bf514	1.2184167
31	0x40152f21	2.3310015

LNB1.4.bn.bias f4 [32]
0	0x3ef7eff6	0.48425263
1	0x3e821a01	0.25410464
2	0x3efc2f0c	0.49254644
3	0xbedae5b0	-0.42753363
4	0x3c81a873	0.015827393
5	0x3efde95f	0.4959211
6	0x3e81efcd	0.25378266
7	0x3e95781b	0.29193196
8	0x3e41b120	0.18915224
9	0x3d7b46bf	0.061346766
10	0x3efaca31	0.48982385
11	0x3f1e38ef	0.61805624
12	0x3ec728be	0.3889827
13	0x3e726105	0.23669823
14	0xbe88f8b8	-0.26752257
15	0x3e8f1f58	0.279536
16	0xbe8c74b5	-0.2743279
17	0x3f411e8f	0.75437254
18	0x3ef917d9	0.48651007
19	0x3e2d221c	0.16907543
20	0x3eb5ffee	0.3554682
21	0x3a814fdd	0.000986572
22	0x3f075560	0.52864647
23	0x3dab5899	0.08366508
24	0x3e0344c7	0.12819205
25	0x3ed624ae	0.4182486
26	0x3f48b954	0.7840779
27	0x3e8d52c5	0.2760221
28	0x3cb4fefc	0.022094242
29	0x3eb79cf6	0.3586194
30	0xbd0dac13	-0.03458793
31	0x3f026ff8	0.509521

LNB1.4.bn.running_mean f4 [32]
0	0xbfc3fc26	-1.5311325
1	0x3ec9c75f	0.3940992
2	0x3fd13b3c	1.6346202
3	0xc0009869	-2.0093024
4	0xc083ed06	-4.1226835
5	0x3fe2df39	1.7724372
6	0x40b303db	5.5942206
7	0x3f610d0f	0.8791055
8	0xc09b16b3	-4.846521
9	0xbfdc3859	-1.7204696
10	0x40903a62	4.507127
11	0x3f826c89	1.0189372
12	0x40da7937	6.8272967
13	0xc08cd321	-4.4007726
14	0x410f440e	8.954115
15	0x4068d39b	3.6379154
16	0xbffcdcc5	-1.9754874
17	0x401356c4	2.3021708
18	0x405a30c9	3.4092276
19	0xbfd8b2b5	-1.6929537
20	0x407ce170	3.9512596
21	0x3f5aa810	0.85412693
22	0x4041a783	3.025849
23	0x3fbfe4f0	1.4991741
24	0x410a00e5	8.625218
25	0x4107c5b0	8.485764
26	0x3cbdc866	0.023166846
27	0x3f8b0443	1.0860676
28	0x407b80a7	3.9297273
29	0x40f17c97	7.5464587
30	0x3fdbd132	1.7173216
31	0x409e10f7	4.939571

LNB1.4.bn.running_var f4 [32]
0	0x40ee86d4	7.4539585
1	0x41a11aac	20.138023
2	0x4186a90a	16.832539
3	0x420f354a	35.80204
4	0x4144a844	12.29108
5	0x4181422a	16.157307
6	0x41a0205c	20.0158
7	0x41bbe909	23.488787
8	0x40f9a79a	7.801709
9	0x4189763f	17.182737
10	0x41f3d8f1	30.480928
11	0x4110bbb1	9.045823
12	0x4106e68e	8.431288
13	0x417de4a1	15.868318
14	0x41dc0120	27.50055
15	0x416a1d8f	14.632216
16	0x41a5ccef	20.725065
17	0x41396323	11.586703
18	0x411fce8c	9.9879265
19	0x4111df85	9.11707
20	0x41715193	15.082416
21	0x41a6f1c6	20.868053
22	0x4209f8f8	34.493134
23	0x41774aed	15.455792
24	0x4169063b	14.564021
25	0x415db7d5	13.857381
26	0x411584dd	9.344937
27	0x418a808a	17.312763
28	0x41c88b02	25.067875
29	0x4172e42e	15.180708
30	0x41b7eb07	22.98976
31	0x41d67fa5	26.812326

LNB1.6.weight f4 [32, 32, 3, 3]
0	0x3eaf83d3	0.3428026
1	0x3e161c7d	0.14659305
2	0xbe55a263	-0.20862727
3	0xbe6ffbd1	-0.23435904
4	0x3f9aacab	1.2083944
5	0x3e9c63ae	0.305448
6	0x3ef2e51e	0.47440428
7	0x3de6733e	0.112524495
8	0xbfa739c8	-1.3064508
9	0xbe355fed	-0.17712374
10	0x3f1d02ef	0.613326
11	0xbe0e1c1a	-0.13877907
12	0x3f7f75ea	0.997893
13	0xbcd6cdc8	-0.026221171
14	0x3e4fdccc	0.20299071
15	0x3ecc3b96	0.3988921
16	0xbed76f05	-0.4207689
17	0x3f681038	0.9064975
18	0xbee3dd99	-0.44505003
19	0xbf690ebe	-0.9103812
20	0x3f4bcf74	0.79613423
21	0x3eb22508	0.34793878
22	0xbed0d05a	-0.4078396
23	0xbddab3a2	-0.106787935
24	0x3fa4704e	1.2846773
25	0xbc21c6c1	-0.009874047
26	0x3e97faae	0.2968344
27	0xbd32b21d	-0.043626893
28	0x3e550425	0.20802362
29	0xbe0ea5a6	-0.13930377
30	0x3c88f694	0.01671914
31	0xbf337ab1	-0.7010909
32	0xbeadfb6c	-0.33980882
33	0x3e861586	0.26188296
34	0xbbf70a4a	-0.0075390683
35	0xbe6e0f0e	-0.2324793
36	0xbf4616b3	-0.77378386
37	0xbf722718	-0.945909
38	0xbe015698	-0.12630689
39	0xbe55baa5	-0.2087198
40	0x3e4e7967	0.20163499
41	0xbf6276b4	-0.88462377
42	0xbeec2a2e	-0.4612593
43	0x3ed2f505	0.4120256
44	0xbeb2c590	-0.34916353
45	0xbeb7b8e0	-0.35883236
46	0xbb83fe11	-0.00402809
47	0xbd6187e6	-0.055061243
48	0xbf56fc57	-0.8397879
49	0xbf116265	-0.56790763
50	0xbefae045	-0.4899923
51	0xbe21b6ec	-0.15792435
52	0x3f2b3fcf	0.6689424
53	0x3f29bbc0	0.6630211
54	0xbf06ce40	-0.5265846
55	0xbf05f10b	-0.5232093
56	0xbf5a0094	-0.8515713
57	0xbf22a004	-0.63525414
58	0x3fa06f42	1.2533953
59	0xbf251049	-0.64477974
60	0xbf21d6b5	-0.6321824
61	0x3e853d89	0.2602351
62	0xbf136a9f	-0.57584566
63	0xbe5318ac	-0.2061488
64	0x3e0f9767	0.14022599
65	0xbd54fde8	-0.051999956
66	0xbe12aeb9	-0.14324464
67	0xbf275d54	-0.6537678
68	0x3f972b95	1.1810175
69	0xbf536048	-0.8256879
70	0x3ef44083	0.4770547
71	0xbd9e51ce	-0.07730447
72	0x3f5d51fe	0.86453235
73	0xbe3515f3	-0.17684154
74	0xbd281bba	-0.041042067
75	0x3f456e59	0.771215
76	0xbc8983f2	-0.01678655
77	0x3efa00d5	0.4882876
78	0xbc921493	-0.017832076
79	0xbea84b11	-0.3286977
80	0xbd15a996	-0.036538683
81	0x3e9c404b	0.30517802
82	0xbeea0f17	-0.45714638
83	0x3f927637	1.1442326
84	0x3ee73791	0.4515958
85	0xbede542e	-0.434236
86	0xbe33d83e	-0.17562959
87	0x3ee09948	0.43866944
88	0x3eac4e2e	0.33653396
89	0x3eb960b1	0.36206582
90	0xbf3b0e4f	-0.7306871
91	0xbf003b66	-0.50090635
92	0x3e449aeb	0.19199722
93	0x3de1cbd0	0.11025202
94	0x3f5ddf1f	0.8666858
95	0x3f9a01c2	1.2031786
96	0xbec7355b	-0.38907894
97	0xbf871028	-1.0551805
98	0x3d4a5e45	0.04940631
99	0x3d972833	0.07380714
100	0xbe9e291f	-0.30890748
101	0x3e065a72	0.1312044
102	0x3f3a41b7	0.7275652
103	0x3eb6f37e	0.35732645
104	0x3eba8d7d	0.36436072
105	0xbef902b8	-0.48634887
106	0xbe3e7e43	-0.18602853
107	0x3f3b3133	0.7312195
108	0xbf51f2ed	-0.820113
109	0x3f141908	0.57850695
110	0x3eeb8d99	0.46006468
111	0x3f05ecdd	0.5231455
112	0x3f81b55f	1.0133475
113	0x3f2e5f4c	0.6811416
114	0xbf83c9a1	-1.0295907
115	0x3f8c88ab	1.0979208
116	0x3e92b288	0.28651834
117	0x3e99396d	0.29926625
118	0x3d7a86ee	0.061163835
119	0x3d7d3f7d	0.061828125
120	0x3e431d17	0.19054066
121	0x3f15ace4	0.58466935
122	0x3ee16fed	0.44030705
123	0xbf0e5bcc	-0.5560882
124	0xbddd6490	-0.108101964
125	0xbe818845	-0.25299278
126	0x3e54b735	0.20773013
127	0xbd8b3310	-0.06796849
128	0xbe9e0589	-0.30863598
129	0x3eb0e786	0.34551638
130	0xbeae076c	-0.33990037
131	0x3e95c4d4	0.2925173
132	0xbebea360	-0.3723402
133	0xbf3a6f83	-0.72826403
134	0xbf0272ef	-0.50956625
135	0x3e3298bb	0.17441075
136	0xbe02dd21	-0.12779666
137	0xbee88d24	-0.45420182
138	0xbc53a999	-0.012918853
139	0x3e4b7f6c	0.19872826
140	0x3eea00eb	0.45703825
141	0x3efea3f8	0.49734473
142	0x3f0eb1ff	0.5574035
143	0xbe15ab30	-0.14616084
144	0xbd212ab6	-0.039347373
145	0xbf3d1534	-0.7386048
146	0xbef5162e	-0.47868484
147	0xbf50e9c3	-0.8160669
148	0xbf25a023	-0.64697474
149	0xbf67da8f	-0.9056787
150	0xbe55edfa	-0.20891562
151	0xbf07b28e	-0.5300683
152	0xbe259cac	-0.16173047
153	0x3e932d67	0.28745577
154	0xbde06faa	-0.10958798
155	0xbda0218a	-0.07818897
156	0x3ef474bb	0.47745308
157	0xbdbe8b2b	-0.09303888
158	0xbed7d981	-0.4215813
159	0xbecf10b5	-0.40442434
160	0x3dc21a7f	0.0947771
161	0x3dc3e652	0.095654145
162	0xbcc48916	-0.023991149
163	0xbe920ccc	-0.28525388
164	0x3e07d1ad	0.13263579
165	0x3f96752f	1.1754512
166	0x3f3dd1bf	0.7414817
167	0x3ea6ba48	0.32563996
168	0x3e2174d3	0.15767221
169	0x3f46665c	0.7749994
170	0xbe7b6be5	-0.24552877
171	0xbf81641b	-1.0108675
172	0xbf3e1517	-0.7425093
173	0x3e184099	0.14868392
174	0x3ea660b2	0.32495648
175	0x3f4fdc8f	0.8119592
176	0x3f8342ea	1.0254796
177	0x3cd867ba	0.026416648
178	0xbf48aa80	-0.7838516
179	0xbe443458	-0.19160593
180	0x3f0634a2	0.5242406
181	0xbf81b72f	-1.0134028
182	0x3f2726d2	0.6529361
183	0x3d80cf03	0.06289484
184	0x3f0fd0bf	0.56177896
185	0x3e950454	0.29104865
186	0xbf4424b6	-0.76618516
187	0x3d65dc16	0.056118093
188	0xbf793cf0	-0.9735861
189	0xbecb8246	-0.39747828
190	0xbf128c06	-0.5724491
191	0x3e0d154d	0.13777657
192	0x3e97ce07	0.29649374
193	0xbe4a6d33	-0.19768219
194	0xbe8f694d	-0.28010026
195	0xbd1a7e80	-0.037718296
196	0xbf701c97	-0.93793625
197	0xbe7817f1	-0.24227883
198	0xbe3605c8	-0.17775643
199	0xbefb2f7c	-0.49059665
200	0xbce9b0bf	-0.028526662
201	0xbd45b97e	-0.048272602
202	0x3dc761f3	0.09735479
203	0x3fdba8e2	1.7160914
204	0xbdde0b47	-0.10841995
205	0xbf584ef8	-0.84495497
206	0xbf4e5805	-0.8060306
207	0xbe14e0a4	-0.14538819
208	0x3f2685ca	0.65047896
209	0x3e864205	0.26222244
210	0x3f35c088	0.70996904
211	0x3e9a8856	0.3018214
212	0xbe43e480	-0.19130135
213	0xbe045cd3	-0.12926035
214	0xbe380ea7	-0.1797434
215	0xbcc842b2	-0.024445865
216	0xbf087f78	-0.533195
217	0x3de74507	0.11292463
218	0xbf39bfb6	-0.7255815
219	0xbe88edb5	-0.26743856
220	0xbf2abc65	-0.6669372
221	0x3e085ccc	0.13316649
222	0x3e6d91f0	0.23200202
223	0x3f80de51	1.0067846
224	0x3f0bd8b5	0.54627544
225	0x3edbc970	0.42927122
226	0x3dbfa7fb	0.093582116
227	0x3eae02fa	0.33986646
228	0xbece9c99	-0.4035385
229	0x3ea4a34c	0.32155836
230	0x3eb4f867	0.35345766
231	0xbe0e8747	-0.13918792
232	0x3d87b96f	0.066271655
233	0xbfa13ccb	-1.2596678
234	0xbdb740c3	-0.08947899
235	0xbf041871	-0.51599795
236	0xbeaee50f	-0.34159133
237	0x3f4090f1	0.75221163
238	0x3efd7c82	0.49509054
239	0x3e1c581b	0.15267985
240	0x3ef65b4d	0.48116532
241	0xbeb2cdb3	-0.3492256
242	0xbf34edaa	-0.70675147
243	0xbe903677	-0.28166553
244	0xbf009bf4	-0.50237966
245	0xbf2e8def	-0.68185323
246	0xbf900aad	-1.1253258
247	0xbf876ed8	-1.0580702
248	0xbf824b82	-1.0179293
249	0x3f3d3ad7	0.7391791
250	0x3de2ab21	0.110677965
251	0x3ee1f9fe	0.4413604
252	0xbe7accb1	-0.24492146
253	0xbf15006c	-0.5820377
254	0x3e309f20	0.17248201
255	0x3f6a5633	0.9153778

LNB1.7.bn.weight f4 [32]
0	0x3e684566	0.22682723
1	0x40067ec4	2.1014872
2	0xbda631e7	-0.08114987
3	0x3e75c78a	0.240019
4	0x40112a7c	2.268218
5	0x4000759a	2.0071778
6	0x4048dc04	3.1384287
7	0x401babb7	2.4323556
8	0x3de1e1d0	0.110293984
9	0x3dc6d666	0.09708862
10	0x3e9b1a99	0.3029373
11	0x3ded3703	0.11582758
12	0x3f20955e	0.62727916
13	0xbeb7cb78	-0.35897422
14	0x3eaed6f1	0.34148362
15	0x3ec6b09d	0.3880662
16	0x3ed04135	0.4067475
17	0x3e57bd96	0.21068415
18	0xbd31df3d	-0.043425787
19	0xbcf317b7	-0.029674394
20	0x3b946ad6	0.0045293374
21	0xbe239a3b	-0.15976803
22	0x4013dcd0	2.3103523
23	0xbdda565f	-0.10661005
24	0x3f203b22	0.6259023
25	0x3cb7cd48	0.022436753
26	0xbe838067	-0.256839
27	0x3f433471	0.76251894
28	0x3e073d50	0.13206983
29	0x400bf2d9	2.1866972
30	0x3f067c14	0.5253308
31	0xbe10a928	-0.14127028

LNB1.7.bn.bias f4 [32]
0	0xbf0fce77	-0.56174415
1	0x3f7e4783	0.9932787
2	0xbeb7b3d0	-0.35879374
3	0xbe5a79cf	-0.21335529
4	0x3f184234	0.5947602
5	0x3f6f5437	0.93487877
6	0xbe8e1902	-0.27753454
7	0x3e9976c7	0.29973432
8	0xbf119276	-0.56864107
9	0xbf1223e6	-0.57086027
10	0xbf0c3869	-0.54773575
11	0xbf0940ac	-0.53614306
12	0xbf92bd39	-1.1463996
13	0xbe701466	-0.23445281
14	0x3d36075f	0.044440623
15	0xbf47d75e	-0.78063
16	0x3eec4ccd	0.46152344
17	0x3dd42f37	0.10360568
18	0xbf4400c0	-0.76563644
19	0xbebfac72	-0.37436253
20	0xbefde40d	-0.4958805
21	0xbf2ccc97	-0.6749968
22	0x3f3637f8	0.7117915
23	0xbeaec0ee	-0.3413157
24	0xbea22e1a	-0.31675798
25	0xbed6c059	-0.41943625
26	0xbf36fb66	-0.71477354
27	0x3f821309	1.0162059
28	0xbe8c9417	-0.27456734
29	0x3ea104cf	0.3144898
30	0xbf14535d	-0.579397
31	0xbe0e00a2	-0.13867429

LNB1.7.bn.running_mean f4 [32]
0	0xc08c3017	-4.3808703
1	0x3dcc770f	0.09983646
2	0xc087f92d	-4.249167
3	0xc0459fff	-3.0878904
4	0x3e76cab4	0.24100763
5	0xbfc03d65	-1.5018736
6	0x3f0c69b8	0.54848814
7	0xbf5bd7b7	-0.8587603
8	0xc0891fd9	-4.2851377
9	0xc103a713	-8.22829
10	0xc09dea01	-4.934815
11	0xc07552d3	-3.8331802
12	0xc0918abb	-4.548185
13	0xc0827f24	-4.07802
14	0xbfea9ca9	-1.8329059
15	0xc0b7855d	-5.7350297
16	0x3f686ee1	0.9079419
17	0xc044227c	-3.0646048
18	0xc0179862	-2.3686757
19	0xc08ce356	-4.402751
20	0xc087024c	-4.2190304
21	0xc0d8c2b7	-6.773769
22	0x4000c742	2.0121617
23	0xc09d1aec	-4.9095364
24	0xc0bd5496	-5.9165754
25	0xc0579ecc	-3.3690672
26	0xc0c45552	-6.135415
27	0x3f644b38	0.89177275
28	0xc015aa90	-2.3385353
29	0xbe2951f6	-0.16535172
30	0xbf31f541	-0.6951485
31	0xc057c853	-3.3716018

LNB1.7.bn.running_var f4 [32]
0	0x4220bca4	40.18422
1	0x41d0e0e8	26.109818
2	0x41dafe0a	27.374043
3	0x425db413	55.425854
4	0x419fac12	19.959019
5	0x4166023b	14.375545
6	0x422a3efe	42.561516
7	0x41d36b46	26.42738
8	0x422a0279	42.502415
9	0x42ed2fc8	118.59332
10	0x424406c2	49.0066
11	0x4254e73b	53.22581
12	0x42cffa9b	103.98946
13	0x4216123d	37.51781
14	0x4232c92f	44.69647
15	0x42e63746	115.107956
16	0x420c5007	35.07815
17	0x4221173f	40.2727
18	0x4238cf9f	46.202755
19	0x426fbe54	59.935867
20	0x41dffeb9	27.999376
21	0x42f95c68	124.68048
22	0x418fad17	17.959517
23	0x42128cda	36.63755
24	0x42f92c01	124.585945
25	0x421c716f	39.110775
26	0x4287c0e6	67.876755
27	0x42792ccd	62.29375
28	0x4223e6c9	40.975376
29	0x426d4744	59.319595
30	0x42882482	68.071304
31	0x4210101f	36.015743

LNB1.9.weight f4 [32, 32, 3, 3]
0	0x3f2aa760	0.66661644
1	0x3e05e64a	0.1307613
2	0x3e3e832a	0.18604723
3	0xbe1ce845	-0.15322979
4	0xbf813687	-1.0094765
5	0xbf86f9d7	-1.0544995
6	0x3ec7bafc	0.39009845
7	0x3f582ac1	0.8444024
8	0xbe945997	-0.28974602
9	0xbeb1e5f9	-0.34745768
10	0x3ef951c9	0.4869521
11	0x3f338b8a	0.70134795
12	0xbed6b19c	-0.4193238
13	0xbfb15e3f	-1.3856887
14	0x3dc08ca3	0.09401824
15	0xbe3b132c	-0.18269032
16	0xbc88cd7f	-0.01669955
17	0xbe520c30	-0.20512462
18	0xbf1d9d81	-0.61568457
19	0xbf500910	-0.8126383
20	0x3f01cd7b	0.50704163
21	0x3cb3b34c	0.021936081
22	0xbf53a519	-0.82673794
23	0xbf0103fb	-0.503967
24	0xbeb599aa	-0.354688
25	0xbf406f14	-0.7516949
26	0x3f12815e	0.5722865
27	0xbe5b31a1	-0.2140565
28	0xbec6754b	-0.38761362
29	0x3e67ce79	0.22637357
30	0xbf178471	-0.59186465
31	0xbf88fe8c	-1.0702682
32	0xbf765591	-0.96224314
33	0x3eac62c3	0.336691
34	0x3ee9f43e	0.45694155
35	0xbe371075	-0.17877372
36	0x3e6d36dd	0.2316546
37	0xbda37f48	-0.07983261
38	0xbdbc0028	-0.09179717
39	0x3e4a1e80	0.19738197
40	0xbe8abb99	-0.2709625
41	0xbe93642f	-0.28787372
42	0x3eacffef	0.33789012
43	0x3df69dda	0.120418265
44	0xbe544648	-0.20729935
45	0xbf10bf5a	-0.5654198
46	0x3ee18971	0.44050172
47	0xbe45519d	-0.19269414
48	0xbcceab40	-0.025228143
49	0xbe258fad	-0.16168089
50	0xbe025792	-0.12728718
51	0x3eaf1a54	0.34199774
52	0x3d6cb4c1	0.057789568
53	0x3ddcf637	0.10789149
54	0xbd050bb6	-0.03248187
55	0xbe5291f3	-0.20563488
56	0xbd8387b9	-0.064223714
57	0xbd446eb4	-0.047957137
58	0xbe910090	-0.28320742
59	0x3e058ef0	0.13042808
60	0x3eccd7e3	0.40008458
61	0xbdff5d9e	-0.12469028
62	0xbec93c55	-0.39303842
63	0x3e936ab5	0.28792349
64	0xbeb5653b	-0.35428795
65	0xbe2b6d58	-0.1674093
66	0x3e32e585	0.17470367
67	0x3dd49454	0.10379854
68	0x3d0a4275	0.033754785
69	0xbd93af8a	-0.07211216
70	0xbea6e904	-0.32599652
71	0xbe84d3d8	-0.25942874
72	0x3e8379c8	0.2567885
73	0x3efea52a	0.49735385
74	0x3f477a00	0.7792053
75	0x3f87fec8	1.0624628
76	0x3e017fce	0.1264641
77	0x3e2de3ca	0.16981426
78	0x3f902407	1.1260995
79	0x3ed221fd	0.41041556
80	0x3f170144	0.58986306
81	0xbf2a340b	-0.6648566
82	0xbf462241	-0.7739602
83	0xbeccb13b	-0.39978966
84	0x3eaba728	0.33525968
85	0x3eac2c96	0.33627766
86	0x3e79c47f	0.24391364
87	0x3d7208fd	0.059090603
88	0x3f2db97d	0.6786116
89	0xbc12b553	-0.008954364
90	0xbee7c128	-0.45264554
91	0x3f6e040f	0.9297494
92	0xbea29c59	-0.3175991
93	0x3e9ca186	0.30591983
94	0x3db1b378	0.08676809
95	0x3f641b99	0.8910461
96	0x3f90fc81	1.1327058
97	0xbf562e51	-0.83664423
98	0xbf19850a	-0.59968626
99	0xbe98e563	-0.29862508
100	0x3f356c35	0.70868236
101	0xbd91883b	-0.07106062
102	0xbee51c45	-0.4474813
103	0xbfdd956c	-1.7311225
104	0xbf7c0054	-0.98438
105	0xbf6fdee1	-0.9369946
106	0x3ee0d3ec	0.43911684
107	0xbe2a27ac	-0.16616696
108	0xbdddb764	-0.108259946
109	0xbdba1eca	-0.09087904
110	0xbeeabf9a	-0.45849305
111	0x3ec0b123	0.37635145
112	0xbf8084d3	-1.0040535
113	0xbe7291c1	-0.23688413
114	0x3d782f4b	0.060591977
115	0x3d4d6872	0.050148435
116	0xbf63c7ea	-0.8897692
117	0x3ec6c9d0	0.38825846
118	0xbf3a98cb	-0.72889394
119	0xbdfcc2a0	-0.12341809
120	0xbd8f5d49	-0.070002146
121	0x3f5ae43f	0.85504526
122	0x3f151459	0.58234173
123	0x3dfe7fcf	0.12426721
124	0xbd73902c	-0.059463665
125	0x3ec5232c	0.38503397
126	0x3e94ea6f	0.2908511
127	0xbe36fe76	-0.17870507
128	0x3de0f400	0.10984039
129	0x3f81fc40	1.0155106
130	0xbc28af34	-0.010295678
131	0x3f29edcb	0.6637847
132	0x3ea5b35f	0.32363412
133	0xbf94d9f6	-1.1629016
134	0xbec9cb04	-0.394127
135	0xbd3e9c74	-0.046535924
136	0x3f16a5df	0.5884685
137	0x3e25cf90	0.1619246
138	0x3e40ee3b	0.18840878
139	0x3f67cc03	0.9054567
140	0x3e488d89	0.19585241
141	0xbf7bfb8e	-0.98430717
142	0xbe9226a9	-0.2854512
143	0xbf55b5ef	-0.83480734
144	0x3d8becc2	0.06832267
145	0x3e16833a	0.14698496
146	0xbf33c073	-0.7021553
147	0x3f0f04d7	0.5586676
148	0xbe2e7837	-0.17038046
149	0xbf281be0	-0.65667534
150	0x3eea2843	0.45733842
151	0x3dfc2d3b	0.123133145
152	0x3ed2dd8b	0.4118465
153	0xbef39529	-0.47574738
154	0xbf158d74	-0.58418965
155	0xbf069dc0	-0.5258446
156	0xbeaa077f	-0.33208844
157	0xbeb81902	-0.3595658
158	0x3f16ef83	0.58959216
159	0x3f0f5b3d	0.55998594
160	0xbd047e98	-0.03234729
161	0x3f409f0c	0.75242686
162	0xbdc7be6d	-0.09753118
163	0x3db51d7a	0.08843513
164	0x3e0baa26	0.13639125
165	0x3f0d317e	0.55153644
166	0x3d80e6c0	0.06294012
167	0x3e927669	0.28605965
168	0xbf0c41cd	-0.54787904
169	0xbe9ba0e8	-0.303962
170	0xbc8bf765	-0.01708574
171	0x3ded7eef	0.11596476
172	0xbef236e3	-0.473075
173	0xbefaec32	-0.49008328
174	0xbcd07605	-0.025446901
175	0x3b4343f4	0.0029795142
176	0x3e491216	0.19635805
177	0xbf0e424d	-0.55569917
178	0xbe7139bc	-0.2355718
179	0xc024ca63	-2.5748527
180	0x3d201137	0.039078917
181	0xbf2b8496	-0.66999185
182	0xbeef8840	-0.46783638
183	0x3f8a0be1	1.0784875
184	0x3da2b930	0.07945478
185	0x3f2d2c92	0.67646134
186	0xbe513369	-0.20429768
187	0xbf40f8e3	-0.7537977
188	0xbfaf99c6	-1.3718803
189	0xbe95c700	-0.29253387
190	0x3f566aaf	0.83756536
191	0xbe00e169	-0.12585987
192	0xbc8175b0	-0.015803188
193	0x3ff0c845	1.8811117
194	0xbdbc848e	-0.0920497
195	0xbedba1cd	-0.42896882
196	0x3ef5baf0	0.47994184
197	0x3d915457	0.07096165
198	0xbe91cc8c	-0.2847637
199	0xbe78e10b	-0.24304597
200	0x3eee2b8c	0.465176
201	0x3e760667	0.2402588
202	0xbe3b2b31	-0.18278195
203	0x3d7598fc	0.05996035
204	0xbf206eb5	-0.62668926
205	0xbd82ce59	-0.06387014
206	0x3eed4bc0	0.46346855
207	0xbe359817	-0.17733799
208	0xbec15cad	-0.37766019
209	0xbe47b569	-0.19502796
210	0xbf229ca0	-0.6352024
211	0x3ec505a2	0.3848086
212	0xbddc6609	-0.10761649
213	0xbf28f51f	-0.65999025
214	0xbedb4fec	-0.42834413
215	0x3ed49e8d	0.41527215
216	0x3f0403e4	0.51568437
217	0x3f0b20ff	0.54347223
218	0xbf9d1ccf	-1.2274417
219	0xbe1491b6	-0.1450871
220	0x3f2b13a4	0.66826844
221	0x3ec31ced	0.38108006
222	0x3f76a387	0.9634327
223	0x3e682e1a	0.22673836
224	0x3cb5d457	0.022195978
225	0x3d6b9c0f	0.057521876
226	0x3e107de5	0.14110525
227	0xbdb59f06	-0.08868222
228	0x3e3c7b3c	0.18406385
229	0x3ec45a1c	0.38349998
230	0xbe6ad2e2	-0.22932008
231	0x3e47d024	0.19512993
232	0xbe94498b	-0.2896236
233	0xbd14877c	-0.03626202
234	0x3f10f7d7	0.56628174
235	0xbdd7a2e5	-0.105291165
236	0x3e207192	0.15668324
237	0x3e273545	0.16328914
238	0xbf8bc408	-1.0919199
239	0x3ed04d81	0.4068413
240	0x3ed2df23	0.41185865
241	0x3edba6b6	0.42900628
242	0xbe87ca8e	-0.26521724
243	0xbde5bd0e	-0.112177
244	0x3d156c11	0.036480013
245	0x3d269151	0.04066593
246	0xbf3d150f	-0.7386026
247	0xbf47038b	-0.7773978
248	0xbf953e47	-1.165963
249	0xbe1735ba	-0.14766589
250	0xbe5db53f	-0.21651171
251	0x3eac9671	0.33708528
252	0xbe902377	-0.28152058
253	0x3f2d56a2	0.67710316
254	0xbe449703	-0.19198231
255	0xbfacf641	-1.3512651

LNB1.10.bn.weight f4 [32]
0	0xbedda901	-0.43293002
1	0x3e3b4e13	0.18291502
2	0xbd3c287c	-0.045937046
3	0x3ecbb750	0.39788294
4	0x3e0ef6fb	0.13961403
5	0x3f1cef2c	0.6130245
6	0x40199b11	2.4000895
7	0x4021f10e	2.5303378
8	0xbe98728f	-0.297749
9	0x3b718209	0.0036851189
10	0x3eb50d01	0.35361484
11	0x3fa2330f	1.2671832
12	0xbe2150e1	-0.15753509
13	0x3de1d831	0.11027563
14	0x3eabb86a	0.33539134
15	0xbbb1ad52	-0.0054222727
16	0x400df8cf	2.218311
17	0xbe9568b8	-0.29181457
18	0xbe17e61e	-0.14833876
19	0x3e8589a0	0.26081562
20	0x3e0821bb	0.13294117
21	0xbf0e75df	-0.55648607
22	0xbe21b817	-0.15792881
23	0x401881bc	2.3829184
24	0xbecc3431	-0.3988357
25	0xbe7c671d	-0.2464871
26	0xbf0016da	-0.5003487
27	0xbe692f03	-0.2277184
28	0x3cd55905	0.026043424
29	0xbd0ade91	-0.033903662
30	0xbefe9fcc	-0.4973129
31	0x3ea3812a	0.31934482

LNB1.10.bn.bias f4 [32]
0	0xbf3b2227	-0.7309899
1	0x3f8b7164	1.0893979
2	0xbe64167f	-0.22274207
3	0xbf2e74e7	-0.6814713
4	0xbf6b378f	-0.9188165
5	0xbf72061e	-0.94540584
6	0xbee1c486	-0.44095248
7	0x3ee35075	0.4439732
8	0x3f040883	0.5157549
9	0x3f53964a	0.826512
10	0xbf2e43b1	-0.6807204
11	0xbf786da5	-0.97042304
12	0xbfa5db33	-1.2957519
13	0xbf1e838d	-0.6191948
14	0xbf6401ab	-0.89065045
15	0x3f1effbb	0.62108964
16	0x3f215efd	0.63035566
17	0xbf0ce5dd	-0.55038244
18	0x3f1e8f96	0.61937845
19	0x3d8684a7	0.0656827
20	0xbf97dd28	-1.1864367
21	0x3f5cc8e8	0.8624406
22	0xbf218455	-0.6309255
23	0x3f614c00	0.8800659
24	0x3e85dd44	0.26145375
25	0x3e85524b	0.26039347
26	0x3ef547d2	0.47906357
27	0xbf3518e8	-0.7074113
28	0xbefa51d5	-0.48890558
29	0xbf3f9a0b	-0.74844426
30	0x3e27a487	0.16371356
31	0xbf04f36e	-0.51933944

LNB1.10.bn.running_mean f4 [32]
0	0xc079aa59	-3.9010222
1	0xc0cac217	-6.3361926
2	0xbfeee540	-1.8663712
3	0xc058ddf2	-3.3885465
4	0xbe13d59c	-0.14436954
5	0x3f77357b	0.9656598
6	0x3e7628ad	0.24038954
7	0xbfe8cbbd	-1.8187176
8	0xbf360c54	-0.7111256
9	0xbf7693cb	-0.96319264
10	0xbf1bf4cc	-0.60920405
11	0x3f93f4a9	1.1559039
12	0xc09733ec	-4.725088
13	0x3fadc968	1.3577089
14	0x3f1fdbe6	0.62444913
15	0xbfdc848c	-1.722795
16	0x3f201c96	0.6254362
17	0xc047bc95	-3.1208851
18	0xbffa2b33	-1.9544433
19	0x3ec15e28	0.37767148
20	0xc082dc2c	-4.0893764
21	0xc0301c0d	-2.751712
22	0xbfd932d7	-1.696864
23	0xbfff22c4	-1.9932485
24	0xbe253ed0	-0.16137242
25	0xbfeb5306	-1.8384712
26	0xbfe860eb	-1.8154577
27	0xc0791de7	-3.89245
28	0x3f72f70f	0.9490823
29	0xbfc012a5	-1.500569
30	0xc01f744c	-2.4914732
31	0x3eb002a0	0.34377003

LNB1.10.bn.running_var f4 [32]
0	0x41c5c3a4	24.720528
1	0x42339834	44.898636
2	0x42796f16	62.358482
3	0x41f0f336	30.118755
4	0x423d8509	47.379917
5	0x4295159d	74.54221
6	0x4192d4e0	18.353943
7	0x416806de	14.501677
8	0x41a25154	20.289711
9	0x41bfe74a	23.987934
10	0x4235d62a	45.459145
11	0x41d878ca	27.058979
12	0x42269a13	41.650463
13	0x42242f4a	41.04618
14	0x42d11bf1	104.55457
15	0x41cb201e	25.390682
16	0x41599ee5	13.601293
17	0x417d0ed6	15.816122
18	0x427244f4	60.567337
19	0x421734b4	37.801468
20	0x41d342d3	26.407629
21	0x4258af5b	54.171246
22	0x41bce54b	23.61196
23	0x41b4c3c5	22.59559
24	0x41ab73cf	21.431547
25	0x41d631f6	26.774395
26	0x41ec3b33	29.528906
27	0x41c9920a	25.196308
28	0x41c4a00e	24.578152
29	0x423825fa	46.037086
30	0x41a71dbb	20.889517
31	0x426fbd32	59.93476

LNB1.12.weight f4 [32, 32, 3, 3]
0	0xbe6f772a	-0.23385301
1	0xbf90ae62	-1.1303217
2	0x3ea47a3f	0.32124516
3	0xbec21feb	-0.37914976
4	0xbef4c5d0	-0.4780717
5	0xbcbb403d	-0.02285778
6	0x3bab9321	0.005236045
7	0xbd9498ba	-0.07255693
8	0x3ef8491b	0.48493275
9	0xbeeb0253	-0.4590021
10	0xbd091983	-0.033471595
11	0x3d680e92	0.05665452
12	0x3f45e93a	0.77309
13	0x3f3d9371	0.740531
14	0x3f8d1337	1.1021489
15	0x3d056d0f	0.03257471
16	0x3d5bcafd	0.05366038
17	0xbdd5bb50	-0.10436118
18	0xbe200bb6	-0.15629467
19	0x3ef81e40	0.4846058
20	0x3e9820f6	0.29712647
21	0x3d8213b7	0.063514166
22	0xbf0b4dd8	-0.54415655
23	0x3e217ea9	0.15770973
24	0xbe9e4abc	-0.30916393
25	0x3e8b2081	0.27173236
26	0x3e9512f5	0.29116026
27	0x3f5eae30	0.8698454
28	0x3f05bd27	0.5224175
29	0x3f57cfb3	0.843013
30	0x3f1f98bb	0.62342423
31	0x3f4312e9	0.7620073
32	0xbe52f9f4	-0.20603162
33	0x3eb39410	0.350739
34	0xbd4e5a11	-0.050378863
35	0x3f106030	0.5639677
36	0x3efbc4c7	0.49173567
37	0x3f5f3343	0.87187594
38	0xbe500813	-0.2031558
39	0x3e2ee53f	0.17079638
40	0xbec531a4	-0.38514435
41	0x3f377a80	0.71671295
42	0x3f066cb4	0.5250962
43	0x3f7315e5	0.94955283
44	0x3eb1d363	0.34731588
45	0xbe5c8dd4	-0.21538478
46	0xbe848a48	-0.2588675
47	0xbd4256a6	-0.047445916
48	0xbe909853	-0.28241214
49	0x3f89a4ab	1.0753378
50	0x3c67a420	0.014138252
51	0x3c1a8b51	0.00943263
52	0x3e826c07	0.25473043
53	0xbe84968a	-0.25896102
54	0x3ec1d8ec	0.3786081
55	0xbe38871b	-0.18020289
56	0xbe97e435	-0.29666296
57	0xbe945a1b	-0.28974995
58	0xbf2e8070	-0.6816473
59	0xbc1115e0	-0.008855313
60	0xbdb8bcc4	-0.09020379
61	0xbe9f318b	-0.31092486
62	0xbe5b4137	-0.21411596
63	0xbf18b97e	-0.5965804
64	0x3d5e47d0	0.054267704
65	0xbe85af89	-0.26110485
66	0x3f195d66	0.5990814
67	0x3f614b1f	0.8800525
68	0x3eed1cbf	0.46310994
69	0xbf15d579	-0.5852886
70	0x3e981a86	0.29707736
71	0x3e10cc6e	0.14140484
72	0x3d6883f3	0.05676646
73	0x3ef5da0a	0.48017913
74	0x3e03db5f	0.12876652
75	0xbf4123f0	-0.7544546
76	0xbf1cdc8c	-0.6127403
77	0x3f481419	0.78155667
78	0xbf0314f9	-0.51203877
79	0x3eeed010	0.46643114
80	0x3d9c9ee0	0.076474905
81	0xbf2dd169	-0.6789766
82	0xbf45c3b7	-0.7725176
83	0xbf188621	-0.59579664
84	0x3e118a51	0.1421292
85	0xbec67b7b	-0.38766083
86	0x3f0a2229	0.53958374
87	0x3f6c7d5a	0.9237877
88	0x3e5ff120	0.21869326
89	0x3eefbe19	0.4682472
90	0x3ef8acdf	0.4856939
91	0x3e11a937	0.14224707
92	0x3f1b569f	0.6067905
93	0x3daee38d	0.085394956
94	0x3e3a6a2e	0.18204567
95	0x3ddd4573	0.10804262
96	0x3e4380cb	0.190921
97	0xbeed3845	-0.46331993
98	0x3f1c40de	0.6103648
99	0xbd459a98	-0.048243135
100	0x3f3775ce	0.7166413
101	0x3f0d6162	0.5522672
102	0xbebd6dc5	-0.3699781
103	0xbe2ceec5	-0.16887958
104	0xbc604ec7	-0.013690657
105	0x3c8bfc7f	0.017088173
106	0xbd494c38	-0.049144953
107	0xbe270caf	-0.16313432
108	0xbee55c89	-0.4479716
109	0x3f4691ad	0.77566034
110	0xbe861f11	-0.26195577
111	0xbe8060e9	-0.25073937
112	0xbfa6585b	-1.2995714
113	0xbddeb718	-0.10874766
114	0xbe6f4e46	-0.23369703
115	0x3e98b75a	0.29827386
116	0xbe3a50c9	-0.1819488
117	0x3eb5163a	0.3536852
118	0xbf2ee669	-0.6832033
119	0xbd1edd6c	-0.038785383
120	0xbe6d2c1e	-0.2316136
121	0xbf72b065	-0.94800407
122	0x3e0e5afb	0.13901894
123	0x3d6b0852	0.05738098
124	0xbea6c9dd	-0.32575884
125	0xbdb02710	-0.086012006
126	0xbd1a1036	-0.037613116
127	0x3ec46036	0.38354653
128	0xbefdfa77	-0.49605152
129	0xbeccd260	-0.40004253
130	0x3ff42648	1.9074183
131	0x3ea6aaa0	0.32552052
132	0xbea8ec1e	-0.32992643
133	0x3e32fef7	0.17480074
134	0xbf199793	-0.5999691
135	0xbe6519d9	-0.22373141
136	0xbcecdcba	-0.028913844
137	0xbf35fe28	-0.71090937
138	0xbb8ca2b3	-0.004291856
139	0x3f044f1a	0.516832
140	0x3dec3ebd	0.11535404
141	0x3ded680f	0.11592113
142	0xbfa27557	-1.2692059
143	0xbe0e6591	-0.13905932
144	0x3ed5e3d0	0.4177537
145	0x3f3b0ae1	0.73063475
146	0xbeda8dad	-0.42686215
147	0x3dce855d	0.10084031
148	0xbed6a44c	-0.41922224
149	0xbf0b627c	-0.5444715
150	0x3e65f566	0.22456893
151	0x3f4c108a	0.79712737
152	0xbee8fad9	-0.45503882
153	0x3d1b3201	0.037889484
154	0xbf510782	-0.8165208
155	0xbfae0ff7	-1.3598622
156	0xbea6fa8e	-0.32613033
157	0xbf209417	-0.6272597
158	0xbe71a3b0	-0.23597598
159	0x3e4a7c12	0.19773892
160	0xbdd2a67b	-0.1028566
161	0xbf62311e	-0.88356197
162	0x3ca10189	0.019654052
163	0xbdf143a9	-0.11780483
164	0x3f0461a5	0.51711494
165	0xbf50a164	-0.8149626
166	0xbef5f7f3	-0.48040733
167	0x3d563b38	0.05230257
168	0x3eeff674	0.46867716
169	0xbec3be35	-0.38231054
170	0x3eb34f06	0.35021228
171	0x3e9d04ae	0.30667633
172	0x3b9580ec	0.004562488
173	0x3f323527	0.69612354
174	0xbe9625c1	-0.2932568
175	0xbf462f89	-0.7741628
176	0x3e4e3f6a	0.20141378
177	0xbdd22d52	-0.102625504
178	0x3e2d9542	0.16951469
179	0x3ecaab7d	0.3958396
180	0x3e32a034	0.17443925
181	0xbf665bd5	-0.89983875
182	0x3db57e2b	0.08861955
183	0xbd8b9ebf	-0.06817388
184	0xbf3daddd	-0.7409342
185	0x3dac6f3a	0.08419652
186	0x3ea646b5	0.3247582
187	0xbe71e302	-0.23621753
188	0x3eb690d3	0.35657367
189	0x3f22108b	0.6330649
190	0x3da7af25	0.08187703
191	0x3ee49e05	0.4465181
192	0x3f08a3d6	0.53374994
193	0x3ff6eb5f	1.929058
194	0x3da76022	0.08172633
195	0x3f544833	0.8292267
196	0xbed7622d	-0.4206709
197	0xbe5cf217	-0.21576725
198	0x3e650203	0.22364049
199	0xbf0b7470	-0.54474545
200	0xbf236beb	-0.63836545
201	0x3e3864d9	0.1800722
202	0xbf985b47	-1.1902856
203	0xbe4eee34	-0.20208055
204	0x3b3e5a2b	0.0029045444
205	0xbec2f956	-0.38080853
206	0xbd1f047f	-0.038822647
207	0xbedf9580	-0.43668747
208	0xbd1c77b2	-0.038200088
209	0xbf067f15	-0.5253766
210	0xbeab5a1c	-0.33467185
211	0x3f8f91bd	1.1216351
212	0x3bce55b1	0.0062968363
213	0xbe534dbf	-0.20635127
214	0xbf7cd4d7	-0.9876227
215	0xbe6c55a4	-0.23079544
216	0x3f52a058	0.82275915
217	0xbd4d92ca	-0.050188817
218	0x3e059deb	0.13048522
219	0x3f285a14	0.6576245
220	0x3f5bd71d	0.8587511
221	0xbf8a9e10	-1.0829487
222	0x3f72dabe	0.94865024
223	0x3e0e45ee	0.13893864
224	0xbe2ced75	-0.16887458
225	0xbf1c47f2	-0.6104728
226	0xbe9ca594	-0.30595076
227	0xbe2c7fcc	-0.16845626
228	0xbdfbeef7	-0.12301438
229	0xbf3f717f	-0.74782556
230	0xbf229795	-0.63512546
231	0x3e0932fa	0.13398352
232	0xbf1e13eb	-0.6174914
233	0x3d7603a0	0.06006205
234	0x3df20a20	0.118183374
235	0x3e1075b1	0.14107396
236	0x3e8e535c	0.27797973
237	0x3db023d6	0.08600585
238	0x3f709be9	0.939879
239	0x3e88c95f	0.26716134
240	0x3dce4a52	0.10072769
241	0xbed10b19	-0.4082878
242	0x3f9b8b1a	1.2151825
243	0xbe52b098	-0.20575178
244	0x3e109779	0.14120282
245	0xbe283ca6	-0.16429386
246	0x3dacb02b	0.08432039
247	0x3e39dfd4	0.1815179
248	0x3d7c1215	0.061540682
249	0x3e568aa5	0.20951326
250	0x3e881a3c	0.26582515
251	0x3e575822	0.21029714
252	0x3f0dd702	0.554062
253	0xbe38c6fc	-0.18044657
254	0x3cb9f108	0.02269794
255	0x3ecd04bf	0.40042683

LNB1.13.bn.weight f4 [32]
0	0xbf6ed1c6	-0.9328884
1	0xbf15abab	-0.5846507
2	0xbf907673	-1.1286148
3	0xbefcf13f	-0.49402806
4	0x3ec9b2bd	0.3939418
5	0xbf3c01e1	-0.73440367
6	0xbf99b9d5	-1.2009836
7	0xbf6d3a56	-0.9266714
8	0xbdf08d54	-0.11745706
9	0xbf26aa4f	-0.6510362
10	0xbf4097a5	-0.7523139
11	0xbea55002	-0.32287604
12	0x3ec155b6	0.37760705
13	0xbf2970fd	-0.6618803
14	0xbf22ec1e	-0.63641536
15	0xbf5102d6	-0.8164495
16	0xbf93622f	-1.1514338
17	0xbf9011db	-1.1255449
18	0xbf7dd997	-0.9916014
19	0x3eab2955	0.3342997
20	0xbf801741	-1.0007097
21	0xbf65b08a	-0.897225
22	0xbdda4f77	-0.10659688
23	0xbf8a71b0	-1.0815945
24	0xbf8290b5	-1.0200411
25	0xbf67b98e	-0.9051751
26	0xbe76121e	-0.24030349
27	0xbfb507aa	-1.4142964
28	0xbeff5fc0	-0.4987774
29	0xbf79ee45	-0.97629195
30	0xbf4313b1	-0.7620192
31	0xbe0ffd1d	-0.14061399

LNB1.13.bn.bias f4 [32]
0	0x3d93f5de	0.0722463
1	0xbe4181a7	-0.18897115
2	0x3f5cbb00	0.8622284
3	0xbee4d9c2	-0.44697386
4	0xbf16781c	-0.5877702
5	0xbeaccff6	-0.33752412
6	0xbf0dee16	-0.55441415
7	0xbf7e2fed	-0.9929188
8	0xbf3e46b0	-0.7432661
9	0xbf6defe5	-0.92944175
10	0x3fdf955e	1.7467458
11	0xbf770f32	-0.9650756
12	0xbfc1bbbd	-1.5135418
13	0xbe835675	-0.256519
14	0x3f28d5a4	0.6595099
15	0xbfb7855e	-1.4337575
16	0x3ef3a9bd	0.47590438
17	0x3e831508	0.25601983
18	0x3e7bf263	0.24604182
19	0xbfb6263e	-1.423042
20	0xbde15abb	-0.110036336
21	0xbf813e13	-1.0097069
22	0xbf85e729	-1.046117
23	0xbf5b2de9	-0.8561693
24	0x3ed7b1e9	0.42127922
25	0xbee6fd21	-0.45114997
26	0xbf8458b7	-1.0339574
27	0xbf96bbd0	-1.1776066
28	0x3f46ed06	0.7770542
29	0xbf4f04ec	-0.80866885
30	0x3eaf3886	0.3422281
31	0xbf8166aa	-1.0109456

LNB1.13.bn.running_mean f4 [32]
0	0xbf29b530	-0.66292095
1	0xc0f4c3ab	-7.6488853
2	0xbf1cea8a	-0.6129538
3	0x40aa3f4d	5.320227
4	0x3f806aa0	1.0032539
5	0xc0b84a9d	-5.759108
6	0xbec508b8	-0.38483214
7	0xc07975dc	-3.8978186
8	0xbf0f7244	-0.5603373
9	0xc095636f	-4.668388
10	0x3e012503	0.12611775
11	0x409c8650	4.8913956
12	0x3da70aea	0.081563786
13	0xbfa3b6ad	-1.2790123
14	0xbfb415a1	-1.4069101
15	0xc11d4d37	-9.831351
16	0xbf8ffb12	-1.1248496
17	0xc0216fdc	-2.5224524
18	0xc0277c64	-2.6169672
19	0x415b303b	13.699275
20	0x3f5e67ec	0.8687732
21	0xc0757d44	-3.8357706
22	0xbfce43a1	-1.6114389
23	0xbfeebf62	-1.8652155
24	0xc0617231	-3.5225947
25	0xc095465e	-4.6648397
26	0x400af8cb	2.171435
27	0xc0d96dbe	-6.7946463
28	0xc06634cf	-3.5969732
29	0xc04fb05f	-3.2451398
30	0xc0155cb8	-2.333784
31	0x4068b119	3.6358092

LNB1.13.bn.running_var f4 [32]
0	0x420c6f37	35.10861
1	0x421a8ea5	38.6393
2	0x41965f8d	18.796656
3	0x423818d1	46.024235
4	0x41d8d5e7	27.104445
5	0x41f9f510	31.24466
6	0x42e5a27e	114.81737
7	0x41fcb5f9	31.588854
8	0x41da7387	27.30641
9	0x41a962d6	21.17326
10	0x4216357b	37.552227
11	0x41ff1bd6	31.888592
12	0x4260f083	56.234875
13	0x41c8ee76	25.116436
14	0x41d026fb	26.019033
15	0x426fccc0	59.94995
16	0x41b93890	23.152618
17	0x4174bca6	15.296057
18	0x41a3b883	20.465094
19	0x42ee9d0e	119.30675
20	0x42682366	58.03457
21	0x419bb503	19.463385
22	0x420c6590	35.099182
23	0x41c5a745	24.706675
24	0x41c09e17	24.077192
25	0x42aa2e92	85.09096
26	0x41eb840d	29.439478
27	0x41ca8d55	25.31901
28	0x41eb87f8	29.441391
29	0x41fd244d	31.642725
30	0x41c7f2d6	24.993572
31	0x420ae20c	34.72075
